models/win_draw_loss_v1/saved_model/best_model.pth (torch, 62968 bytes, 7 tensors)

team_embedding.weight f4 [46, 10]
00000000: 9b8f edbe aaa5 8d3f 020b 93bf 36f2 3fbf
00000010: 9250 f8bf bd50 f13e eeaa 0abf f1dd 1f3f
00000020: 3375 25bf 98aa abbd 175a f43f b99e 563f
00000030: 9c99 2bbd 1565 7cbf befe a9be 81c6 15bf
00000040: ded3 47be 9eea 34bf a162 bc3f 07b3 47be
00000050: 36b8 52bf 2348 8d3f c8c3 a4be 8afd abbf
00000060: f3ce debd 8914 a1bd e2be a93e a0ff 473f
00000070: 8fd7 f43f e116 8cbf a0f7 ebbe 1743 653f
00000080: e8c1 c03f 1907 c63f 5da2 5fbe 35c9 b6bd
00000090: c405 803f 598a 0e40 97b0 a43f d0ed 5bbe
000000a0: 99da 5f3e 06e4 f9bc 85b4 b23d 3e16 d43d
000000b0: 2048 debe 934b 3d3f c5e6 2abe 74b7 21bf
000000c0: b908 a1bd 7916 b03d 6b57 5a3f 3b4d f0bd
000000d0: b620 2cbe dfc5 ee3e dd74 9dbf 944f 0dbf
000000e0: 520a 793f 119b cd3f 08ec c23f 2c73 02c0
000000f0: 642c efbf afc5 3b3f 5a88 4cbf 4cdb c83e
00000100: e190 31bf 757e 843f 194a c43f fc58 5fbf
00000110: f00f 90be 101b 1ebf 609a b53f 875a 4c3e
00000120: 8d47 afbf 3165 df3e 7c92 8cbf f43a 72bf
00000130: 1c5b 5f3e d903 ba3f 2b4e 853e e932 023f
00000140: 3a0b 2bc0 7b42 cebd 1217 063f fd28 483f
00000150: 7490 7f3f aed5 853d b2f6 ccbf 5c1a ae3e
00000160: 8980 74bf 9861 93bf 915e a8be a839 58bf
00000170: 297c 6a3f 48fa 00bf f959 dd3d 931a 82be
00000180: 2cd6 29bf 5f37 fcbf 62c7 c3be d7dd 8abe
00000190: fa12 a43e ab57 003c 9d35 4f3c 9d33 5e3f
000001a0: d1f7 343f a5c1 9dbf d0fe b83f 40dc 753e
000001b0: 03a0 953f 7f18 a1bf 9603 ccbe 3289 b93e
000001c0: d209 c43f 6bea f43f 0b7e 183f df0c d83f
000001d0: eac8 dfbd 51da 6b3e c0e1 d93e 705d 7fbf
000001e0: aafa babf e4b3 603f 2db9 b03f 929d 56bf
000001f0: 9196 b83e 26cb 83bf 1f48 49bf 0934 4a3c
00000200: bced d03f e7a8 3e3e 91ac 6e3f 6b7e 89bf
00000210: e16d 3e3e e059 0dbf b457 2bbe 44ed 26bc
00000220: edd4 0ebf d924 a63f 1d41 a4be 1bfb 46bf
00000230: 035e a0be 0126 60be aa2d bfbf cc8e bf3d
00000240: bf2a a83f 23cc 653f ee20 113e ab74 d93d
00000250: 730e ae3f afdf 0fc0 65d8 6d3f aed4 9fbf
00000260: 9e23 3abd fa8b aebf ab04 16be 7ae1 03c0
00000270: bf9c aa3e 7e57 853e 8511 a83f 4cb9 a0bf
00000280: c807 d6be ef8f e6be a4dd 833f b1dc a53e
00000290: 0e57 2240 1ea0 8dbe 0db9 b83f d654 99be
000002a0: c387 2640 1ce6 dd3f 590f a7be c89c 7f3f
000002b0: 22c5 35bf 5533 88be 4f62 d8bf f40f 7f3e
000002c0: 77b3 afbe 79dc 5c3e e7cd d03e 48a0 1240
000002d0: 0cab 82bf 7962 b83e 914a 22be b884 473f
000002e0: a407 3d3e 7d63 883f e6c7 d53e 3ea1 7bbe
000002f0: a39f dfbe da21 28bc 7b98 8fbf 925e 33bf
00000300: 15ce b9be 6efb c83e 49c2 233f 3144 5f3f
00000310: b324 873f 14d6 bcbf f884 7c3e 40c8 83bf
00000320: 2300 0d3f e9bc c6bf 4031 5b3f 16c1 563f
00000330: 44bb 763f 58d4 223f 7749 ddbf 44e1 88bf
00000340: 05ed 953e fe63 163f c892 253f 0dec 363f
00000350: d23a 2cbe 2024 cebf 6828 0d3f f297 3ac0
00000360: 749d acbf e377 8bbf 5d6d 673f 5cc1 81bf
00000370: bcd4 bf3e 201a 4e3f 6eb4 99bd ff26 f43f
00000380: dc17 03bf 810a 733f 9ad1 62bf 6723 723f
00000390: 0e81 c63f 2422 2e3d 3053 2f3e a91b 22bf
000003a0: 61f7 fd3f c246 e5bf 518a b4bf 9e0b 7dbf
000003b0: 570c 643f d3bd b3bf acc4 3e3f 1fee c3bc
000003c0: 6f85 40bf 2e1d 3fbf fc57 1fbf e384 953e
000003d0: 713c fbbf eeb9 5bbf efd2 88be 84b9 ccbe
000003e0: 9c43 b73f 5246 9fbe 4d1b 503f 5c95 c73e
000003f0: ba62 91bf dae1 f03f 9f52 9b3f 7cb2 093f
-0.46398625 1.1066182 -1.1487734 -0.7497896 -1.9399588 0.4713191 -0.5416707 0.6244803
-0.64631957 -0.083821476 1.9089993 0.8383594 -0.04189454 -0.9859174 -0.33202165 -0.5850602
-0.19514415 -0.706705 1.4717599 -0.19501887 -0.82312334 1.1037639 -0.3218062 -1.3436749
-0.10879316 -0.07865245 0.33153445 0.7812443 1.9128283 -1.0944482 -0.4608736 0.89555496
1.5059175 1.5470916 -0.2183928 -0.08925096 1.000176 2.227194 1.2866391 -0.21477437
0.21860732 -0.030504238 0.087258376 0.10355805 -0.43414402 0.7394344 -0.16689594 -0.6317055
-0.07862992 0.08598036 0.8528964 -0.117334805 -0.16809353 0.4663534 -1.2301289 -0.5519955
0.9728137 1.6062948 1.5228281 -2.0382795 -1.8685422 0.73348516 -0.79895556 0.3922981
-0.6936169 1.0351092 1.5335113 -0.87245154 -0.2813716 -0.61760044 1.4187737 0.19956408
-1.369371 0.4363189 -1.0982203 -0.94621205 0.21812099 1.4532424 0.260362 0.5085893
-2.6725602 -0.10071274 0.5237895 0.78187543 0.9982979 0.06534897 -1.6012785 0.34004486
-0.9550863 -1.1514158 -0.32884648 -0.84462976 0.91595703 -0.503819 0.108081765 -0.254109
-0.66342425 -1.9704398 -0.38238055 -0.27122375 0.32045728 0.007833402 0.01264706 0.86797506
0.7069064 -1.2324721 1.4452763 0.240098 1.1689457 -1.2585601 -0.39846486 0.36237484
1.5315497 1.9134039 0.59567326 1.6878928 -0.10926993 0.230325 0.42555046 -0.9975195
-1.4607747 0.8777449 1.3806511 -0.83834183 0.36052373 -1.0296371 -0.78625673 0.012341508
1.6322551 0.18619119 0.93232065 -1.0741705 0.18596603 -0.55215263 -0.16732675 -0.0101884045
-0.5579365 1.2979995 -0.32080927 -0.77726907 -0.31321725 -0.21889497 -1.493581 0.09353408
1.3138045 0.8976461 0.14172718 0.10617956 1.359816 -2.2480276 0.92908317 -1.248678
-0.045444123 -1.3636467 -0.14650218 -2.060637 0.33322713 0.26043314 1.3130347 -1.2556548
-0.41802812 -0.45031688 1.0302014 0.32394937 2.5365634 -0.27661222 1.4431473 -0.29947537
2.6020362 1.7335849 -0.32628897 0.99848604 -0.71003926 -0.26601663 -1.6905001 0.2490843
-0.34316608 0.21568479 0.4078209 2.2910328 -1.0208449 0.3601263 -0.15848757 0.7793689
0.18459946 1.0655361 0.41754073 -0.24573228 -0.4367648 -0.010261977 -1.1218408 -0.7006618
-0.3629004 0.39254326 0.6396833 0.87213427 1.0558075 -1.4752831 0.24660099 -1.0295486
0.55078334 -1.5526401 0.85622025 0.83888376 0.96379495 0.6360526 -1.7288045 -1.0693746
0.29282394 0.58746326 0.64677095 0.71453935 -0.16819313 -1.6104774 0.5513978 -2.915524
-1.3485551 -1.0895962 0.9040125 -1.0137134 0.3746699 0.80508614 -0.07505117 1.9074401
-0.5120828 0.949379 -0.88601077 0.9458527 1.5508134 0.042513028 0.17121577 -0.63323456
1.9841119 -1.7912219 -1.4104711 -0.9884585 0.8908133 -1.4042305 0.7451885 -0.023917256
-0.75203604 -0.746539 -0.6224363 0.29202947 -1.962782 -0.8583058 -0.2672343 -0.39985287
1.4317508 -0.31108338 0.8129166 0.3898114 -1.1358254 1.8818924 1.2134589 0.5378797

fc1.weight f4 [128, 46]
00000000: 3218 4ebd c884 9bbc 56bc 35be 3cb3 21bc
00000010: cbd4 ac3c 3234 2b3d 27f6 803d acb1 d83c
00000020: cc62 ddbd 416a 22be f1ea 0cbe 8572 133e
00000030: fc52 edbd b942 9dbd 4720 a13d 0532 1b3d
00000040: afc3 103d 0945 143e 1b05 6bbd 93e8 42bc
00000050: 019b 643d fcea a63d 8998 e4bd 31b8 b93d
00000060: dbe4 47be 906e 5cbd 8c22 be3d c434 11be
00000070: 8e01 543c 8fef 0a3e 3b20 c2bc d97e ea3d
00000080: 9bf5 dbbc 19f9 2dbd 32f6 cbbd e74d bcbd
00000090: 3440 55ba 324f 083e ca28 e53d 2e57 babd
000000a0: 3267 b43c 0d59 993b 97ec b83d 0b8b 5e3d
000000b0: 3df0 9ebd 087e 8bbd c292 c23d 139f 18bd
000000c0: b02c 93bd ac2f 3d3e a115 383c 0a35 28be
000000d0: cf72 9e3d f53d 6fbd 96a2 e63d 671e ecbd
000000e0: 5282 5e3e 5a24 d1be fa5d 09be 10f2 8a3d
000000f0: 77f1 61bd a12c 383c 0324 c33d 8e61 2f3e
00000100: 0858 ccbc 778d 063e 05d6 923d 68a0 16bd
00000110: bd91 4c3c fee0 d43c e22e 1ebd d603 ff3d
00000120: d614 363e ce2b 0abe 0d77 283d 4207 c1bd
00000130: 06b7 a7bd a2d5 06bc 6f63 d43d 8a2f 2c3d
00000140: 1529 e23c 00fa af3d cba5 923d 0abc 4c3c
00000150: 31e7 d83c 5ed7 2bb8 a9a4 5e3d 7fcc 05be
00000160: f0e7 69be 2dae 923d be4c 9e3d 74c4 003d
00000170: 5308 26bd 15a6 683a 2e1d 6b3e 7bc8 94be
00000180: b87e f4bd ca9d e03d e884 e9bd 87e9 d33d
00000190: df99 75bc 2a01 603d 1b5b 06bf 92ce 7b3e
000001a0: 73c9 e83d 5b0d 1fbd 10de b33c 7a1b b7bc
000001b0: 94e3 253d 1647 70bd 8d92 013e bd03 e5bd
000001c0: 7bb1 853b b0c6 b33d ab53 30bd a8cd 9a3d
000001d0: 30a2 24bd b3fc 883d 2e61 c33b b885 8abd
000001e0: 84d4 a6bd a960 b93a 3bd1 56bd 15b9 1fbb
000001f0: 80ba 30be fa15 103e c7bd 8abd a829 36bd
00000200: 48a1 83bc a90d b7bd 5954 ac3d 5e0f 03bd
00000210: 1942 7bbd 31a4 18be 0abc b4bc ddf9 bcbd
00000220: e4a5 05be 5801 c4bb b0d9 06be 57dc 11be
00000230: 5445 963d c8b4 89bc 51fa e1bd 88f9 153e
00000240: 21ab 29bd 0f84 24bd d795 0dbd 3e0f a73d
00000250: 31ba b8bd 4121 c537 10b8 6cbd 414f b23c
00000260: 9d74 07bd 98ff 833d c6e2 e33d 35ae 0abe
00000270: 62b7 863d 5247 cabd 11c8 e1bd 7859 283d
00000280: 812e 12be 36f1 023e c0da 543d e0d5 973d
00000290: bcdf bdbd 4bd6 023e 1bcc e0bc d26e 63bd
000002a0: c3f5 dfbd b791 a8bc 824a 943d 8f0f 703d
000002b0: 65d9 90bd a0da 0c3e a828 12be aff8 f4bd
000002c0: 257b 353d 7eb5 863c 0494 83bd c6ab 743c
000002d0: f077 5bbc 5011 c73d 2c29 d53d 237a f3bd
000002e0: e2e4 813d 33f3 3b3d a6dd 6bbd fed9 0fbe
000002f0: 2588 7f3d 91a9 22be edbd 11be 5488 12be
00000300: 2e18 a43d e4d5 cabc b584 873d 9c64 db3d
00000310: d391 18be 0e78 92bd 06e7 9f3d 2029 bd3d
00000320: 4d37 07be f4b6 10be d724 a9bd e945 55bd
00000330: 6478 fb3c 76e3 b03d 7a8e 1cbe 3d47 0b3e
00000340: 0e34 85bd 50bd 9e3d 8ae8 30be a048 78bd
00000350: f7b0 ebbd e8fd b63d 7c9c bfbc 670f 9fbd
00000360: ffb3 a7bd 44ea 0fbe 4c1d cabd 2590 27be
00000370: d7e3 b53d c936 0d3e 23e5 e3bd f8ca abbd
00000380: 6e9d b43d c353 1d3e 2717 8b3d ee8a f3bc
00000390: 45b1 563d f233 b13d 94e2 fabc 5e1d 23be
000003a0: 68a6 e03a 8d12 3b3d ef79 03bc e1c2 8cbd
000003b0: e35a 46be 9778 cf3d 273c eabc 61b5 b43d
000003c0: c6b8 f9bb d7e2 8bbd d3fc 773d ae88 d33d
000003d0: cb5e 3bbe 272d 173e f0b1 3b3d 74f6 d13d
000003e0: 475d f63c c344 21bd f33e b33d 04d7 843d
000003f0: 3d0c f2bd 3372 c8bd 4946 febd 6b73 a4bb
-0.050316043 -0.018984213 -0.17747626 -0.009869393 0.021097561 0.041797824 0.0629695 0.026451908
-0.1080986 -0.15860845 -0.13761498 0.14399154 -0.11588094 -0.07678742 0.078674845 0.0378895
0.03534287 0.1447946 -0.057377916 -0.01189627 0.055811886 0.081502885 -0.11161906 0.09068335
-0.19520895 -0.053816378 0.09283933 -0.14180285 0.012939824 0.13567947 -0.02369701 0.114499755
-0.026850512 -0.042473886 -0.099590674 -0.09194546 -0.0008134872 0.1331146 0.111894205 -0.090986595
0.022021864 0.004679805 0.09029501 0.05433182 -0.077606656 -0.06811148 0.09500648 -0.03726108
-0.07186258 0.18475217 0.0112356255 -0.16426483 0.07736742 -0.058408696 0.112614796 -0.11529236
0.21729401 -0.40848047 -0.13414755 0.06784451 -0.05516192 0.011241109 0.09528353 0.17127058
-0.02494432 0.13139902 0.07169727 -0.03677407 0.012485919 0.02598619 -0.03861893 0.124519035
0.17781386 -0.13493273 0.04112916 -0.094252124 -0.08189206 -0.008229645 0.10370528 0.042037524
0.02760748 0.085926056 0.07160529 0.012496004 0.026477428 -4.0970153e-05 0.05435625 -0.1306629
-0.22842383 0.07162128 0.07729481 0.031437352 -0.040535282 0.0008874846 0.2296035 -0.29059204
-0.11938232 0.10967596 -0.11402303 0.10347276 -0.014990299 0.05468861 -0.52482766 0.24590519
0.113665484 -0.038831096 0.021956474 -0.022351969 0.04050024 -0.058661543 0.12653561 -0.11182354
0.004079995 0.08778131 -0.043048542 0.07558757 -0.040193737 0.066888236 0.0059625125 -0.06763786
-0.08146003 0.0014143187 -0.05244563 -0.0024371792 -0.17258644 0.14070883 -0.067744784 -0.04447332
-0.016068116 -0.08938152 0.084145255 -0.031997077 -0.061342333 -0.14906384 -0.02206232 -0.09227345
-0.13051564 -0.0059816055 -0.13168979 -0.14244209 0.07337442 -0.016809836 -0.11034072 0.1464597
-0.041422967 -0.040165003 -0.034566727 0.08157204 -0.09019888 2.3499715e-05 -0.057792723 0.021766307
-0.033070195 0.06445235 0.11127238 -0.13543017 0.06577946 -0.098768845 -0.11024488 0.04110095
-0.14275552 0.12787327 0.05196643 0.0741384 -0.092711896 0.12777059 -0.027441075 -0.05552561
-0.10935547 -0.020577295 0.07240774 0.058608588 -0.07072715 0.13755274 -0.14273322 -0.11961495
0.044306893 0.016443964 -0.06424716 0.014933532 -0.013395295 0.09720099 0.104082435 -0.1188853
0.06342484 0.04588623 -0.057584427 -0.14048001 0.062385697 -0.15884997 -0.14232607 -0.14309818
0.080124244 -0.024760194 0.06617109 0.10712549 -0.14899378 -0.07151805 0.07807736 0.092363596
-0.1320469 -0.14132291 -0.0825898 -0.052068625 0.030697055 0.08637135 -0.15288725 0.13601394
-0.06504069 0.07750952 -0.17276207 -0.060616136 -0.11508363 0.089351475 -0.023390047 -0.0776661
-0.081886284 -0.14054209 -0.09868869 -0.1636358 0.088813476 0.1379043 -0.11127689 -0.083883226
0.0881909 0.15363984 0.06791525 -0.029729333 0.05241515 0.08652486 -0.030625619 -0.15929171
0.0017139437 0.04567199 -0.008024677 -0.06873108 -0.19370608 0.101304226 -0.028593136 0.08823658
-0.0076209037 -0.06830376 0.060543846 0.10328804 -0.1829788 0.14763318 0.04582399 0.10252085
0.030073775 -0.039372217 0.08752241 0.064863235 -0.118187405 -0.09787407 -0.124157496 -0.0050186417

fc1.bias f4 [128]
00000000: 50f9 b93d f32a 00be 8434 393e 8358 73bd
00000010: a444 13be 63cc d0bd 6b25 dbbd ce21 a9bc
00000020: 5b9b c9bc 4968 0fbe 0dba 2dbd d430 3bbd
00000030: e04b c2bd 0de2 733d 2160 8e3d e59f 3b3d
00000040: 697e b23c 8f18 c93d 5caf 49bd 6bf9 ab3d
00000050: 3a7b 653d 90b1 53bd 2936 b73d b7ab 7c39
00000060: db41 e83d 23e9 13be 1111 1c3e c834 aebc
00000070: e30e 00be 4085 4e3c fca2 0c3e 2375 acbd
00000080: efe2 88bd c4bb 7a3d f413 62bd 556f 39be
00000090: c4b0 f4bd 91b8 903c 66a6 823c 497d 9abd
000000a0: 5906 a8bd df2f 76bc 39f8 8f3d 8d45 b3bd
000000b0: 876b b0bd c6b7 2abe 089a 3fbe 1459 10be
000000c0: 2b1f 9cbd 9954 a43b 0e07 f63a 238c f93d
000000d0: 2979 173d 60ee f7bd 5394 0a3d 5efc b6bc
000000e0: 0c50 b03d 4f2e b7bc 1dec 5ebd bf62 77bd
000000f0: 64fa eb3d 2a9d e9bd 5892 d53d cba0 ec3c
00000100: 9ad8 c93d 8e90 18be 97e6 0e3e 6c37 ae3b
00000110: ba95 973d a81f 8fbc 2d2d e2bd 0236 f5bc
00000120: 04d9 05bd aaf4 903c e257 893c 4039 d03c
00000130: 6cb7 d73d 3d89 043e 2726 f73b 0d64 2ebe
00000140: 53c5 ea3d ecfb 153e b8e7 07be b719 b6bd
00000150: 7949 be3d cc58 0cbe 53b4 05be b15f aebd
00000160: 6b68 a7bd d396 eebd 2779 bb3d b4ff f5bd
00000170: 9046 2cbe 4da3 a2bd 4bf8 91bd 7a7b 30be
00000180: ecd8 cabd 6e26 3f3e 75ea 47be 59a2 f13d
00000190: c9b8 abbc 309e 03bd b92a 853b 4bf2 e0bc
000001a0: 4afd a33d 9a4e 00bd c5bb ea3d 0647 c93d
000001b0: 9bba 11bc 8765 bd3d 1747 8cbd 8355 2ebe
000001c0: dbcf 35be 47e6 9e3d 093f b03d 423c ce3d
000001d0: 11a3 26bd 200a a4bb c961 ec3d a5ac bdbd
000001e0: 8f41 a63b 04ae 10bd 4a09 93bc 303c 82bc
000001f0: e802 0b3e 1f22 c73d 7c95 a2bc 5c04 38bd
0.09080756 -0.12516384 0.1808644 -0.059410583 -0.14381653 -0.10195234 -0.10700496 -0.020646002
-0.024610212 -0.14004625 -0.04241376 -0.045700863 -0.09487128 0.05954175 0.06951929 0.045806784
0.021788793 0.09819137 -0.0492395 0.08397182 0.05602572 -0.05168301 0.08945877 0.00024096562
0.11340686 -0.14444403 0.15240885 -0.021265402 -0.12505679 0.012605011 0.13734049 -0.084207796
-0.06683909 0.061214224 -0.05519481 -0.18108876 -0.11947778 0.017666133 0.015948486 -0.075434275
-0.08204336 -0.015026062 0.070297666 -0.087535 -0.08614259 -0.16671667 -0.18711102 -0.1409648
-0.07623132 0.0050149676 0.0018770413 0.12184932 0.03698078 -0.12106013 0.03383286 -0.022337135
0.08609018 -0.022360949 -0.054424394 -0.060396906 0.115223676 -0.1140693 0.104283035 0.028885266
0.098557666 -0.14898893 0.1395515 0.0053166654 0.07401605 -0.01747115 -0.11043773 -0.02993298
-0.032677665 0.01769479 0.016765539 0.025417924 0.10533032 0.12942977 0.00754239 -0.17030354
0.11463418 0.14646882 -0.13271987 -0.088916235 0.092913575 -0.13705748 -0.1305707 -0.085143454
-0.08174213 -0.11649861 0.09153967 -0.12011662 -0.16823792 -0.079413034 -0.07127436 -0.17234603
-0.09904656 0.18667004 -0.19523032 0.117985435 -0.020962136 -0.03213328 0.004063931 -0.027459284
0.080072954 -0.03132496 0.114615954 0.09828 -0.008894588 0.092478804 -0.06849497 -0.17024808
-0.17755072 0.07758766 0.08605773 0.10070087 -0.040682856 -0.00500609 0.115420885 -0.09261445
0.005073733 -0.035322204 -0.017948765 -0.01589784 0.13575327 0.09723305 -0.01984667 -0.044926032

fc2.weight f4 [64, 128]
00000000: e77d 963c cd01 4dbd 1b6a 1bbe bb10 b23d
00000010: ba43 9e3d 38a5 933d 3a36 0ebc 4ea6 93bb
00000020: 7114 a43c a707 8f39 e429 fc3c 429b e93c
00000030: be63 efba a7d2 623d 9519 c03d 64ab 05be
00000040: 829c f6bb f957 d4bc f67e 2bbc 1fe4 6f3c
00000050: 7984 873d 404f 853d ed4c 9e3c e6f6 573d
00000060: d9c3 06bd b6da acbd fa5f 10bd c135 003c
00000070: 1d62 113d d109 ba3d c908 56bd 6e8d abbc
00000080: d79a 373d 849b 59bd 42c0 dabc 6aca 903d
00000090: a005 133e 3ebc 8e3d e36f c53c 4b39 c7bb
000000a0: bf61 70bd 25f6 6d3b 0318 b3bd f800 623d
000000b0: a75d 38bd 7403 853b 3925 9c3d 6db4 8fbd
000000c0: eca8 17bd 39bc 4d3d 7fd2 1b3d 02cc e2bc
000000d0: b5f6 7f3d 912c 7f3b 6b24 aebc ee14 df3d
000000e0: 527e 17bd 7f2b cebd 3f15 86bd 101d 9a3d
000000f0: 0935 aebd 6d25 273d 11ad 763d 269c 25bc
00000100: ecfb f4bc 060a bb3d a2f6 fc3a 5d7c 7a3c
00000110: 8cb2 5bbd c5ac 833d 6c79 c53d 1bca 9d3d
00000120: eb29 84bc bb9d 3c3d dc4b 18bd 3d9f 58bd
00000130: 8393 963d 4d28 a5bd d6f0 e0bd 8674 38bd
00000140: ca2d 80bd 80d3 fe3d 3269 bb3d 918f 22bd
00000150: 38ab 653d ecc1 93bd 1cfc 993d 8158 e5bc
00000160: 4d9c 863d 6db9 ad3c 9a1b 683d 1731 113d
00000170: a626 a03d 0e46 26bc e645 ffbc a1a3 c83c
00000180: d618 8cbd cd3e 34bd f5fe 35bd 49c9 8cbd
00000190: a868 b8bd b8d4 993d 7ab3 343d 3d5f 6d3d
000001a0: 0617 493d dd88 3d3c 8b23 f53b 3e9d 553d
000001b0: d476 45bc 0760 adbc 9234 f53d a9c0 b8bd
000001c0: 8c8a cbbc 77c9 c03d acf8 133d bc62 03be
000001d0: cf35 d3bd dd46 92bd a384 5dbd b64b d5bc
000001e0: 9652 263d c9b8 763d 17ac 2f3d 7140 19bc
000001f0: 0d2d 3e3d 4c28 69bd 0ba9 af3d 39dd 0dbe
00000200: 173f 553d 5270 323d eed8 05be e94c 52bd
00000210: d1b1 32bd c1ad 78bc 4812 8dbd c571 bebc
00000220: 5ea5 c3bc b476 5fbd ea23 25bd 5268 ff3b
00000230: 2800 0ebd 7358 b2bc d16d 043e 13e6 14be
00000240: c467 07bc 28d7 87bd 6d2c 843c 7b9d 8abd
00000250: c6b3 6dbc ac12 a93d dadd 533d 1537 343d
00000260: dff3 833c 7af4 48bd 34ca 65bd c8e9 863d
00000270: bd38 593c 4619 8cbd f582 7dbd dfa5 593c
00000280: 8a5b bdbc 47d0 2abc 9789 203c d73d 3ebd
00000290: 62c1 903d f316 8d3c dfc0 ed3c 9be3 51bd
000002a0: 5395 fbbd 09a9 e93c 4000 89bd 3771 f2bc
000002b0: ba9c 90bd 68a6 903c edf9 8abb 1e48 0cbd
000002c0: 9a8b 60bd 078e 433b 0496 b5bc 206a aa3c
000002d0: e76f 0fbd 94b7 aabc 241c a5bd cc61 e53d
000002e0: b5b9 70bb ed50 03be 1af0 37bd fc29 2ebd
000002f0: d455 ddbc ef95 85bd dfdb 27bd 268f 763b
00000300: 2398 b13c d74f 713d e555 84bd 4e5a 6bbd
00000310: 1ee9 15bc 802c 4d3d a2ab a43d 5282 883d
00000320: cd6d c43d 38ff 73bb 71c4 2dbc 4521 e63d
00000330: aed1 803d 498d a53c 2b75 f6bc b17e 8f3d
00000340: 0a36 1fbe b35d 0abc 6670 113d edea 743d
00000350: c2a6 53bd 338b fd3c 291a a93d 6378 113d
00000360: 78e9 7e3d f5b6 7abd 1b84 debd 784e 2a3d
00000370: 4c63 8abd ca39 583d c1ec 34b9 8556 25bc
00000380: ff4f af3b be12 a0bd 4f93 55bd 7e40 2cbd
00000390: cd46 98bc 7b5a a83d 7ed7 babd 6b58 833d
000003a0: f3fd 1dbc 07ce 143e e61c 683d 89e7 373d
000003b0: 151a 3c3d 952c e0bc 3807 bfbc f217 3fbd
000003c0: a75a 86bc 52be 593d 0300 bb3d 3a6d bebc
000003d0: 1106 dd3c 76e2 d8bd 825b 16be 7b28 a8bd
000003e0: 2a03 5a3c 231b e53c d693 b33b c4b1 ccbd
000003f0: f72b ba3d 7fc1 43bb eba9 19bb 8aec df3c
0.018370582 -0.050050545 -0.15177195 0.08694597 0.077277616 0.07209247 -0.008679921 -0.004505909
0.020029278 0.00027280787 0.030781694 0.028516416 -0.0018263978 0.055376675 0.093798794 -0.13053662
-0.0075259814 -0.025920855 -0.010467282 0.014641791 0.06617064 0.06509256 0.01932379 0.052725695
-0.03290162 -0.08440153 -0.03524778 0.007825316 0.03549396 0.090839036 -0.052254472 -0.020941462
0.0448254 -0.053126827 -0.026703004 0.070698574 0.14357615 0.06969498 0.024101203 -0.006079828
-0.058686968 0.0036310044 -0.08744814 0.055176705 -0.04501119 0.0040592495 0.07624287 -0.07016835
-0.03702633 0.05022833 0.03804254 -0.02768517 0.062491138 0.0038936476 -0.0212576 0.10892664
-0.036985703 -0.1006689 -0.06547021 0.075250745 -0.085062094 0.040807176 0.060223643 -0.0101080295
-0.029905282 0.09132771 0.0019299577 0.01528844 -0.053637072 0.064294375 0.096423 0.07704564
-0.01613327 0.04604886 -0.03718172 -0.052886236 0.073523544 -0.080643274 -0.10983436 -0.045033
-0.062587336 0.12442684 0.09150924 -0.039687697 0.05607149 -0.07214722 0.07518789 -0.027996304
0.06572781 0.021206582 0.056666948 0.035447206 0.078198716 -0.010148538 -0.03116126 0.024492087
-0.068406746 -0.044005204 -0.0444326 -0.068743296 -0.090043366 0.07511276 0.044116475 0.057952154
0.049094222 0.011568275 0.0074810437 0.05215191 -0.012052257 -0.021163953 0.119729176 -0.09021122
-0.024846338 0.09413426 0.036125824 -0.12830633 -0.103129975 -0.07142422 -0.05408157 -0.026037078
0.040606104 0.06023482 0.042888727 -0.009353743 0.046429683 -0.056923196 0.08577164 -0.13853921
0.05206212 0.04356415 -0.13071033 -0.05134288 -0.04362661 -0.015178145 -0.068882525 -0.023247609
-0.023882564 -0.054556563 -0.040317453 0.0077944184 -0.034668118 -0.021770691 0.12932517 -0.14540891
-0.008264486 -0.06632835 0.016134465 -0.06768318 -0.014508193 0.082555145 0.051725246 0.043997843
0.016107498 -0.049061276 -0.05610104 0.06587559 0.013258156 -0.06840758 -0.06189247 0.013284176
-0.023114938 -0.010425634 0.009798429 -0.046445694 0.07068135 0.017222857 0.029022632 -0.051242452
-0.12284341 0.028522985 -0.06689501 -0.029595 -0.07061143 0.017657474 -0.0042412193 -0.034248464
-0.054820634 0.0029839294 -0.02216626 0.020802557 -0.035018828 -0.02083949 -0.08062008 0.11200294
-0.0036731784 -0.1282384 -0.044906713 -0.04252051 -0.027018465 -0.06522738 -0.04098117 0.0037621944
0.02167899 0.05891403 -0.064616956 -0.057459168 -0.009149818 0.050091267 0.08040549 0.066654816
0.09591255 -0.003723098 -0.010605917 0.112368144 0.06289993 0.020208972 -0.030085167 0.07006586
-0.15547958 -0.008445191 0.035507582 0.059794355 -0.051672705 0.030950164 0.08256943 0.0355152
0.062234372 -0.061209638 -0.10865041 0.04157874 -0.067572206 0.052789487 -0.00017254335 -0.010091429
0.0053501124 -0.07816075 -0.052142438 -0.042053692 -0.018588448 0.08220383 -0.09123133 0.06413349
-0.009643066 0.14531718 0.056668185 0.044898544 0.04592331 -0.027365008 -0.023318872 -0.046653695
-0.016400648 0.05316002 0.091308616 -0.023245443 0.026980432 -0.10590069 -0.14683345 -0.08210846
0.013306418 0.027967041 0.00548027 -0.099948436 0.09090417 -0.0029869971 -0.0023447226 0.02733447

fc2.bias f4 [64]
00000000: 8e8a 9b3c 3817 c83c 39cf bebc f44d b63d
00000010: a85a 18be 067f f23d d519 32bc c2b5 d83d
00000020: 3a8a 9fbb 4e5f 963c 7371 973d a4d3 283d
00000030: f252 6d3d 4af9 373c c16e a03c 3cf7 1a3e
00000040: ef51 37bc ba6f e33c d3f8 db3d a205 833d
00000050: 9499 ff3c 18d5 c93d f0aa af3c 66fc d53d
00000060: 46c8 863d 9352 283d 791f 913d 417b b93b
00000070: 5257 4e3d 61ee eb3d 16c8 f3bc 5196 34bd
00000080: 2f6d 073d 5521 3e3d 2bb4 9ebc 6383 f33d
00000090: 93f3 39bd a703 bd3d 233b f4bc fd7d b6bb
000000a0: bd3b de3d 930f 7d3d 8b13 bf3d 2cb9 783d
000000b0: 8bb6 de3d 7a50 f33c 1772 63bd 87b7 753d
000000c0: a6bd 543d aec4 b33c 5ba5 423c e35c 053d
000000d0: 7180 fc3c c978 693d 873f 453d a416 053e
000000e0: 6662 803d f467 d6bb 92b4 38bc 5738 983b
000000f0: 6e6e 8a3d 46d2 463d 1530 0f3d de37 f0bc
0.018986966 0.024425134 -0.02329217 0.08901587 -0.14878333 0.11840634 -0.010870417 0.105815426
-0.004868773 0.018355992 0.073946856 0.04121746 0.05794043 0.011228869 0.019584062 0.15133375
-0.011188968 0.027763236 0.10740819 0.06397559 0.031201161 0.098550975 0.021443814 0.10448532
0.06581168 0.041094374 0.07086081 0.005660445 0.050376244 0.115200765 -0.029758494 -0.044088665
0.03306311 0.046418507 -0.01937302 0.118902944 -0.045398306 0.09229212 -0.029813355 -0.005569218
0.10851238 0.06178243 0.093298994 0.06072347 0.10874661 0.02970146 -0.055528726 0.05998948
0.051938675 0.02194437 0.011880244 0.032559287 0.030822964 0.056999955 0.048156288 0.12996918
0.06268768 -0.006543154 -0.01127352 0.004645388 0.06759344 0.048540376 0.034957964 -0.029323515

fc3.weight f4 [3, 64]
00000000: 0564 973d 78dd 4e3d de56 afbd 5225 81bd
00000010: b8b5 3abd cf0f 733d 1f10 26bd 188b 5c3d
00000020: 43a2 c13b 3b1c b3bd 435e 3c3d 0857 dc3d
00000030: f40f a83c 3684 26bd 34fc c2bc b409 b8bd
00000040: 51ba bd3d ad15 78bc 9d8c 0b3e d5c6 7fbd
00000050: d6d5 c13d fbaa 023e 0532 843c 4e31 78bd
00000060: 42aa 193d bdc0 76bd ac81 b6bd df60 97bd
00000070: a2da e0b8 9142 5a3c af50 c1bd d734 11be
00000080: 4b91 a4bc 384a 00be 3d2f 553d 3f84 86bd
00000090: 969e b33c 5ae6 02be 4c2e 48bd 2f72 1abc
000000a0: 4b64 a03c 6c46 8a3d c0a7 48bd 34be d1bd
000000b0: 3292 08bd 7a9d 2cbe b704 b33b 3c1c 15bd
000000c0: 4ab5 87bc f4ad 9a3d 408e ad3d bc6d b43d
000000d0: 08f5 bb3d 19ed 553d cd27 8a3c 7702 013e
000000e0: bef4 22bc 58ba 913d 0eeb ee3b 3735 223d
000000f0: 399b cf3d 4817 2e3d af55 09bd 299a e6bd
00000100: 5109 373d 1d4b 643c 0fce 8c3d d689 053c
00000110: f273 833c f6d5 9b3b f9b8 a73b a1cf 6d3d
00000120: 2d5a 90bb 0efe 2ebc 113e 07bc 3c50 503d
00000130: 1e34 403c 02f0 613d 4699 863d ad5c 37bd
00000140: d674 7c3d ad25 bdbc 65d1 853d df09 833d
00000150: ca37 2e3d 6b88 903d 4c72 d5bd 1717 1b3c
00000160: 506e 86bd d643 57bd 0c22 f23c 0eba 7d3d
00000170: 2f07 c0bc 1467 adbc 85d4 b6bd 6ae1 19bd
00000180: 97f9 a13d 0f69 b3bd e3cf ff3d 109d 3a3d
00000190: 95aa 703d 7047 69bd 2fb8 e7bb 5389 c8bc
000001a0: 44bc 45bb 8d4b e03c a58a c23a bd62 36bd
000001b0: 4fd1 cb3d e24d b3bd c960 a4bd 7fd6 66bd
000001c0: e9dc 61bd 8ea1 55bd 64a6 bb3c f409 a2bd
000001d0: f4c2 883b a463 163d 609f 82bd cf78 bb3d
000001e0: ad74 173d 971d 143d 449a 6fbd 59ea 9ebb
000001f0: 6312 c53c 3ac1 7abd 3266 e1bd 7515 c4bd
00000200: 923c 5fbd c60b 47bd cdbf 693d fea7 ac3d
00000210: c2d3 aabc 0fe5 9ebd fb94 97bc 60e2 2ebc
00000220: f174 08be eb4a b73d d65b 25bd 49fe 05bc
00000230: 751f 083e 09a8 3fbd 5b13 fb3d 5a3f 2fbc
00000240: 5bf9 86bb eff7 ffbd ec6d 993d 7e79 babb
00000250: e0a3 9ebc b1bf 8a3c 2bbb f4bd daf3 883d
00000260: a5df 7ebd 9c70 3c3d c59a 7a3d 9c5f fc3d
00000270: 3094 cabd 1b9d afbd c414 263d dd67 7cbd
00000280: 2772 8ebc 99e3 dfbc f684 883d 3321 a63d
00000290: 62f7 893d 0f9e 013c 2915 ba3c e4fd 753d
000002a0: b7d2 e2bd 0a74 91bd a991 c63c 1433 eaba
000002b0: 6908 f63d 1291 98bd 83f1 7b3c c78f dbbd
000002c0: 43a1 e7bd 144f 96bd 262d 89bd 4f94 a7bd
000002d0: ccc5 8bbd 1213 85bd b8dc 7f3c 0020 9b3c
000002e0: 81fe e13d 3ba1 cc3d 22ec bfbd 1923 35bd
000002f0: 897c 653c 2b94 f5bd 3c62 8cbd eddf a8bc
0.07392124 0.050504178 -0.085614905 -0.063059464 -0.045583457 0.059341248 -0.040542718 0.053843588
0.0059092357 -0.08745619 0.045988332 0.107587874 0.02051542 -0.04065343 -0.0238019 -0.08986226
0.09264053 -0.015141887 0.13627858 -0.06244548 0.09464614 0.12760536 0.016137132 -0.060593896
0.037515886 -0.060242403 -0.08911452 -0.073915236 -0.00010721876 0.013321535 -0.09439217 -0.14180313
-0.020088812 -0.12528312 0.052047003 -0.06568193 0.021926206 -0.12783185 -0.048872277 -0.009426638
0.019579073 0.06751713 -0.048988104 -0.102413565 -0.033342548 -0.16856948 0.0054632085 -0.03640388
-0.016565938 0.0755271 0.08474398 0.08809993 0.091775954 0.052228067 0.016864682 0.12598597
-0.009946046 0.071156204 0.0072912043 0.03960153 0.10137028 0.04250267 -0.03352898 -0.112598725
0.04468662 0.013933924 0.0687524 0.008150538 0.016046498 0.0047557307 0.005118486 0.05805934
-0.004405281 -0.010680689 -0.008254544 0.050857767 0.011731176 0.05516053 0.06572203 -0.044766117
0.06163486 -0.023089254 0.065340795 0.06398367 0.042533673 0.0705727 -0.10422191 0.009465954
-0.06564009 -0.052554928 0.02955725 0.061945014 -0.023440925 -0.021167316 -0.08927254 -0.037568487
0.079089336 -0.08760273 0.12490823 0.045559943 0.05875643 -0.056952894 -0.007071517 -0.024479544
-0.003017203 0.027379775 0.0014842345 -0.044527758 0.09952032 -0.08755089 -0.08026273 -0.056356903
-0.055142317 -0.052156024 0.02290649 -0.07912055 0.004173631 0.03671612 -0.063780546 0.09153902
0.036976505 0.03616103 -0.05849673 -0.0048497138 0.024056619 -0.06121943 -0.1100582 -0.09574405
-0.054501124 -0.048595212 0.05706768 0.084304795 -0.020852927 -0.07758533 -0.018503657 -0.010674089
-0.1332586 0.08949836 -0.040370785 -0.008178302 0.1329325 -0.04679111 0.12259551 -0.0106962565
-0.004119081 -0.124984615 0.07491669 -0.0056907525 -0.019365251 0.016937109 -0.11949762 0.06687136
-0.062225003 0.04600583 0.061182756 0.123229235 -0.09891546 -0.08574887 0.040547147 -0.06162249
-0.017388416 -0.027330207 0.06665985 0.08111801 0.06736638 0.007911219 0.022715168 0.060056582
-0.11075347 -0.07102211 0.024239378 -0.0017868006 0.12013323 -0.07449545 0.015377405 -0.10720783
-0.11310055 -0.07339302 -0.066980645 -0.081825845 -0.06824836 -0.06497778 0.015616588 0.018936157
0.11034871 0.0999169 -0.09371211 -0.044222925 0.014006742 -0.119911514 -0.06854674 -0.020614589

fc3.bias f4 [3]
00000000: d85c afbd 7271 e83d 9131 b1bb
-0.085626304 0.11349763 -0.00540752
